Policies/Spot/Blind/policy.pt (torch, 776545 bytes, 8 tensors)

weight f4 [512, 48]
0	0xbe2c87fe	-0.16848752
1	0x3cbbc318	0.022920176
2	0x3e838152	0.256846
3	0x3dd0c350	0.10193503
4	0x3e013eff	0.12621687
5	0xbe0a0513	-0.13478498
6	0x3f4478e5	0.7674697
7	0x3e9fb70b	0.31194338
8	0xbd41d3ec	-0.047321245
9	0xbdfa8106	-0.122316405
10	0xbdb20b17	-0.086935215
11	0xbe0baa22	-0.1363912
12	0xbec4f6a3	-0.3846942
13	0x3e19172c	0.14950246
14	0xbe655b62	-0.22398141
15	0xbebe4582	-0.37162405
16	0x3d172f1b	0.036910158
17	0xbe80da59	-0.25166586
18	0x3ec57cbe	0.38571733
19	0x3ea22b4e	0.31673664
20	0xbea99e70	-0.3312869
21	0xbedf325d	-0.43593112
22	0xbea29ca2	-0.31760126
23	0xbeb1d236	-0.3473069
24	0xbd1a0cfe	-0.037610047
25	0x3d7ed3a6	0.062213562
26	0xbce78ab5	-0.028264383
27	0x3c78a57f	0.015176176
28	0x3db0887c	0.08619782
29	0x3d2400ca	0.040039815
30	0x3dad05df	0.084483854
31	0x3b5e4c0d	0.0033919842
32	0x3d9f6f85	0.077849425
33	0x3d8b5289	0.06802852
34	0xbc800123	-0.015625542
35	0xbdb46100	-0.08807564
36	0xbe687651	-0.22701384
37	0xbd94b0bd	-0.07260273
38	0x3e04aa4e	0.12955591
39	0x3d934706	0.07191281
40	0xbe1c0a0d	-0.15238209
41	0xbc246e7e	-0.010036109
42	0x3cebb808	0.028774276
43	0xbdc346e0	-0.09535003
44	0x3d8c3b4d	0.06847248
45	0xbdecab2c	-0.11556086
46	0xbd10dbf4	-0.035366014
47	0x3c9b0f7c	0.018928282
48	0x3e625e08	0.22106183
49	0xbddd077b	-0.107924424
50	0x3f01719e	0.5056399
51	0x3d85722e	0.06515919
52	0x3d8a12ec	0.0674189
53	0xbeabceea	-0.335563
54	0x3f522402	0.82086194
55	0xbf077062	-0.5290586
56	0xbe4a6bff	-0.1976776
57	0xbd542fbf	-0.051803347
58	0x3e2fe187	0.17175876
59	0x3e4a5403	0.1975861
60	0x3d3416d1	0.043967072
61	0xbdd19ec7	-0.102353625
62	0xbeb5ac40	-0.3548298
63	0xbd8f58b6	-0.06999342
64	0x3d8f18fb	0.069871865
65	0xbdd7535d	-0.10513947
66	0x3d9c48f4	0.07631102
67	0x3e1319cf	0.14365314
68	0x3f02129d	0.5080965
69	0x3e9927c2	0.29913145
70	0x3eeedf4c	0.46654737
71	0x3e8307ad	0.25591794
72	0x3ab5d963	0.001387399
73	0xbd93a995	-0.072100796
74	0x3da6c8dd	0.081437804
75	0x3d61cb68	0.055125624
76	0x3d2d409e	0.042297952
77	0xbda5c58d	-0.080943204
78	0x3da7f582	0.08201124
79	0x3d2052e4	0.03914155
80	0x3cfd577d	0.030925507
81	0xbd602636	-0.05472394
82	0x3d70c42e	0.05878084
83	0x3d1d048f	0.038334426
84	0xbe158ed6	-0.14605269
85	0x3e27b21c	0.16376537
86	0xbc97b24e	-0.01851764
87	0xbd8aa4a6	-0.067696854
88	0xbdbde05e	-0.0927131
89	0x3e309057	0.17242561
90	0x3c0e793c	0.008695897
91	0x3bc691e3	0.0060598715
92	0xbd2e15db	-0.04250131
93	0xbd438b76	-0.047740422
94	0xbd4dae3c	-0.05021499
95	0xbb506084	-0.003179581
96	0x3e0d208b	0.13781945
97	0x3df50354	0.119635254
98	0xbea1f4a7	-0.31631967
99	0x39ccfbea	0.00039097603
100	0xbd6ee9b4	-0.058328345
101	0xbd89aed6	-0.067228004
102	0xbe60ed34	-0.21965486
103	0xbf91c7ea	-1.1389134
104	0xbc79733f	-0.015225231
105	0xbc928e1c	-0.017890029
106	0xbe9261e0	-0.28590298
107	0xbd1ffc93	-0.039059233
108	0x3e8f9c0b	0.2804874
109	0xbbbb307b	-0.0057125664
110	0x3e229208	0.15876019
111	0xbddff5b5	-0.10935537
112	0x3dbb11c2	0.091342464
113	0x3efa9745	0.48943534
114	0x3cfa3c96	0.030546468
115	0x3e83f711	0.25774434
116	0xbdba258b	-0.09089192
117	0xbd01005a	-0.031494476
118	0xbe41f84a	-0.18942371
119	0xbf014345	-0.5049327
120	0x3d98a089	0.07452495
121	0x3db4ea8a	0.08833797
122	0xbd5bdfcd	-0.05368023
123	0xbd61cfbe	-0.05512976
124	0x3cb8e40c	0.022569679
125	0x3d4621b1	0.048371974
126	0xbd83082d	-0.06398044
127	0x3c897f00	0.016784191
128	0xbc1f8608	-0.009736545
129	0x3db0217d	0.086001374
130	0xbadcc4d0	-0.0016843323
131	0xbd059602	-0.03261376
132	0xbe40486a	-0.18777624
133	0x3d7e668b	0.06210951
134	0xbd6c1717	-0.057639208
135	0xbd83608a	-0.06414898
136	0x3e853f53	0.26024875
137	0xbd35cb37	-0.044383254
138	0xbc28f32a	-0.010311881
139	0x3dcfb146	0.10141234
140	0xbbae9f9c	-0.0053290855
141	0x3c59d78d	0.01329602
142	0x3d378512	0.04480464
143	0xbdd16292	-0.10223879
144	0xbdfb7f64	-0.12280157
145	0x3e99dd23	0.30051526
146	0x3ea39179	0.31946924
147	0xbe1701ff	-0.14746855
148	0xbe87449c	-0.26419532
149	0x3e058b35	0.13041385
150	0xbf96dbf4	-1.1785874
151	0x3fbf412c	1.4941764
152	0xbe19a9db	-0.15006201
153	0x3d3ecd58	0.04658255
154	0xbdf02622	-0.11726023
155	0xbeafbea4	-0.34325135
156	0xbec950be	-0.39319414
157	0x3e80c089	0.25146893
158	0xbe5395c0	-0.20662594
159	0x3d99af26	0.0750411
160	0x3cc58f46	0.02411617
161	0xbf003866	-0.5008606
162	0x3e6dddaf	0.23229097
163	0x3e46ea45	0.19425304
164	0x3d7d6f92	0.06187398
165	0xbd8b512b	-0.06802591
166	0xbc409477	-0.011754147
167	0xbd80915c	-0.06277725
168	0x3daf7966	0.08568077
169	0xbdeead43	-0.11654141
170	0xbd2ba70e	-0.041907363
171	0xbcd04c0b	-0.025426885
172	0x3d2343be	0.039859526
173	0xbd3e06d3	-0.046393227
174	0xbcbbecfc	-0.022940151
175	0x3c00bd55	0.00785764
176	0xbb09d80c	-0.0021033315
177	0xbdb05ade	-0.086110815
178	0xbc4e07a8	-0.012575068
179	0x3d07b4b5	0.03313132
180	0xbdcd7fb7	-0.10034125
181	0xbca76a80	-0.020436525
182	0x3d35214d	0.04422121
183	0x3e478b79	0.19486798
184	0xbdde4313	-0.10852637
185	0xbc8c8d77	-0.0171573
186	0x3e646ad9	0.22306384
187	0xbb0919ab	-0.002091984
188	0x3d8ba794	0.06819072
189	0x3df7bb60	0.12096286
190	0x3e62af86	0.2213727
191	0x3d63449d	0.055485357
192	0x3e6dea3d	0.23233886
193	0x3daed88c	0.08537397
194	0xbf02156d	-0.50813943
195	0x3c099d2c	0.008399289
196	0x3e16f5a8	0.14742148
197	0x3cc073b6	0.023492675
198	0x3f26fa5b	0.6522576
199	0x3dffc5e4	0.124889165
200	0x3d17f61b	0.03709994
201	0xbe63126d	-0.22174998
202	0x3e7d574b	0.24740331
203	0xbe802d16	-0.25034398
204	0x3e66cb21	0.22538425
205	0x3d094740	0.033515215
206	0xbdfed0d1	-0.12442172
207	0x3ede735e	0.43447393
208	0xbe12b1b0	-0.14325595
209	0x3da91bdf	0.08257269
210	0x3e5b0412	0.21388271
211	0xbe8e6deb	-0.27818236
212	0x3f46c2a4	0.7764075
213	0x3e8ab5e0	0.27091885
214	0x3eaa8285	0.33302703
215	0x3f5509a1	0.8321782
216	0xbdb5e7c4	-0.088820964
217	0xbd1c4b0a	-0.0381575
218	0xbc8f5a4c	-0.017499112
219	0x3e6828ba	0.22671786
220	0xbc2f024a	-0.010681698
221	0x3dade18a	0.08490284
222	0xbc6fe786	-0.014642602
223	0xbbce0133	-0.006286764
224	0x3d2acfb8	0.041702002
225	0xbd720d85	-0.059094924
226	0x3dc94067	0.09826737
227	0xbd0a1bd6	-0.033717953
228	0xbbd71e07	-0.006564859
229	0x3d3f7360	0.04674089
230	0xbe0a3ace	-0.13498995
231	0x3da08548	0.078379214
232	0x3e3ab90c	0.18234652
233	0x3dab9fb7	0.083800726
234	0xbdd969c1	-0.10615874
235	0xbcd9aa16	-0.026570361
236	0xbd1e93bb	-0.038715106
237	0x3d9ec9fc	0.07753369
238	0xbe4a8e77	-0.19780909
239	0xbce31af6	-0.027722817
240	0x3daa5658	0.0831725
241	0xbe01aef6	-0.12664399
242	0xbe900e8b	-0.28136095
243	0xbdaa0419	-0.08301563
244	0x39bd683f	0.0003612656
245	0x3e95f437	0.29287884
246	0xbdd978c4	-0.10618737
247	0xbe145d53	-0.14488725
248	0x3c9c8769	0.019107537
249	0xbc4ed5c4	-0.012624208
250	0xbddcde4c	-0.10784587
251	0xbe2d3905	-0.16916282
252	0xbf14b640	-0.5809059
253	0x3e32d0ba	0.17462435
254	0x3e8c25b1	0.27372506
255	0x3f0ff05d	0.5622614

bias f4 [512]
0	0x3cc824f5	0.024431685
1	0x3e7c68f0	0.24649405
2	0xbbb20264	-0.005432414
3	0x3ded0901	0.11573983
4	0x3c8eade6	0.017416906
5	0xbc890a35	-0.0167285
6	0xbe1f22b9	-0.1554059
7	0xbe241109	-0.16022123
8	0xbd454f13	-0.048171114
9	0xbd719c91	-0.058987204
10	0xbebf698a	-0.37385207
11	0x3e1b8b0a	0.15189758
12	0xbdbcac4a	-0.09212549
13	0xbd89ecd5	-0.06734625
14	0xbda319c8	-0.07963902
15	0x3e34ded1	0.17663123
16	0x3e086dc2	0.1332312
17	0x3d6d9acd	0.058008958
18	0xbda638da	-0.08116312
19	0xbdfb2993	-0.12263789
20	0xbdaf2285	-0.08551506
21	0x3dc652b2	0.09683742
22	0xbe590d9b	-0.21196596
23	0xbcb8d567	-0.022562696
24	0x3e0eb10b	0.13934724
25	0x3e020ff1	0.12701394
26	0xbc8a575c	-0.01688736
27	0xbdd4afa3	-0.103850625
28	0xbd716008	-0.058929473
29	0x3e07f4ee	0.13277027
30	0xbbd44460	-0.0064778775
31	0xbe4bc553	-0.19899492
32	0xbe5abd23	-0.21361212
33	0xbdcd5d69	-0.10027582
34	0x3dc60384	0.09668639
35	0xbd3b726a	-0.04576341
36	0x3d59401f	0.053039666
37	0xbdad2547	-0.08454376
38	0xbe03835b	-0.12843077
39	0xbe16091f	-0.14651917
40	0x3d1cd85f	0.038292285
41	0x3e299921	0.1656232
42	0xbcda84b5	-0.026674608
43	0xbd645960	-0.055749297
44	0xbd03bf3d	-0.0321648
45	0x3e2d617f	0.16931723
46	0xbe2490e2	-0.16070893
47	0xbc1c15eb	-0.00952671
48	0x3caad309	0.020852583
49	0xbdca9d2d	-0.0989326
50	0xbcbf2590	-0.02333334
51	0xbdef81fc	-0.116947144
52	0xbe16feba	-0.14745608
53	0x3e1216c8	0.14266503
54	0x3d75be39	0.059995864
55	0xbc320c5c	-0.0108672045
56	0xbe07897c	-0.1323604
57	0xba8dcbad	-0.0010818146
58	0x3dfa0e62	0.122097746
59	0xbe21643f	-0.15760897
60	0x3e99dbc9	0.30050495
61	0xbe5e31cb	-0.21698682
62	0xbe4a1b89	-0.19737066
63	0x3d996d4a	0.07491548
64	0xbe83c660	-0.25737286
65	0xbe04ae89	-0.12957205
66	0xbd883079	-0.066498704
67	0xbde31935	-0.11088792
68	0xbe4697be	-0.19393823
69	0x3e54c01a	0.20776406
70	0xbd740b1d	-0.05958091
71	0xbe5167ba	-0.20449725
72	0x3dfa56c1	0.12223578
73	0x3daad595	0.08341519
74	0xbe37ff88	-0.17968571
75	0x3e064b51	0.13114668
76	0x3db3342b	0.087501846
77	0x3e49b144	0.19696528
78	0xbd27ee79	-0.04099891
79	0xbc38584f	-0.011251523
80	0x3e239720	0.15975618
81	0x3dfd6583	0.123728774
82	0x3e51bff0	0.20483375
83	0xbe374678	-0.17897975
84	0xbe5c0b94	-0.21488792
85	0xbe3ce220	-0.18445635
86	0xbd2bc83e	-0.041939013
87	0xbe03e685	-0.12880905
88	0x3e3ee672	0.18642595
89	0x3da06981	0.07832623
90	0xbdb8d7ce	-0.090255365
91	0x3a917bf9	0.0011099569
92	0x3e0201c7	0.1269599
93	0x3e2514ab	0.16121165
94	0x3db4860f	0.08814632
95	0x3e4e2a2e	0.20133278
96	0xbd9cfc51	-0.07665313
97	0xbd473946	-0.048638605
98	0xbdd8e6e1	-0.10590912
99	0x3e435151	0.19073988
100	0xbe24174b	-0.1602451
101	0x3d28ca83	0.041208755
102	0xbe6e668b	-0.23281305
103	0xbb133ca8	-0.0022466574
104	0xbceaf6b3	-0.028682088
105	0x3dace267	0.0844162
106	0x3cc35caf	0.023847906
107	0x3d797309	0.06090072
108	0x3e098c0c	0.1343233
109	0x3e84b34c	0.25918043
110	0xbe0afad3	-0.13572244
111	0x3e66b824	0.22531182
112	0xbddf6562	-0.10908009
113	0x3d9265db	0.07148334
114	0x3e9a868c	0.30180776
115	0x3e52243d	0.20521636
116	0xbdc8ecfa	-0.09810825
117	0x3da0c524	0.078501016
118	0xbd16cd19	-0.03681669
119	0xbd1bf0e4	-0.038071528
120	0xbe5e44a1	-0.21705867
121	0x3e072a08	0.13199627
122	0xbd60427d	-0.05475091
123	0x3e3bc1d3	0.18335657
124	0xbdfa98bd	-0.12236164
125	0xbe1cc02f	-0.15307687
126	0xbdd81e4c	-0.10552654
127	0xbe7e6443	-0.24842934
128	0xbcd02f3b	-0.025413146
129	0xbd29a89b	-0.04142056
130	0xbe1d9046	-0.15387067
131	0x3db67fab	0.089110695
132	0xbc8fcd63	-0.01755399
133	0x3d098f5e	0.03358399
134	0x3e79c39f	0.2439103
135	0xbdb8209d	-0.089905955
136	0x3e32d2e1	0.17463256
137	0x3d9e3370	0.07724655
138	0xbc013eac	-0.007888477
139	0xbdfdc719	-0.123914905
140	0x3d06279a	0.03275261
141	0xbd9e5151	-0.077303536
142	0x3e12cfef	0.14337133
143	0x3d70bf59	0.058776233
144	0xbe0ce490	-0.13759065
145	0xbcb2534a	-0.021768231
146	0xbdcc04f4	-0.09961882
147	0xbe43c4ee	-0.19118091
148	0x3de9b293	0.114110135
149	0x3d59babd	0.053156603
150	0x3d32aa27	0.0436193
151	0xbd0c8f2c	-0.034316227
152	0x3e1f4e54	0.15557224
153	0xbde7fc9b	-0.113274775
154	0x3d3eb8f7	0.046563115
155	0xbdd2b7fa	-0.10288997
156	0xbe3491f8	-0.17633808
157	0xbda1ab6b	-0.078940235
158	0xbe2507d0	-0.16116261
159	0xbe0d1441	-0.13777258
160	0xbda5073f	-0.08058023
161	0x3e47909c	0.19488758
162	0x3df7583c	0.12077376
163	0xbd03d1d2	-0.032182522
164	0xbe3e9f2d	-0.18615408
165	0x3dc99a7a	0.09843917
166	0xbdc29542	-0.09501125
167	0xbe0801c0	-0.13281918
168	0xbe937602	-0.2880097
169	0xbd91dd63	-0.07122304
170	0xbde0f7e9	-0.10984785
171	0x3e4a88e7	0.19778787
172	0xbdbd35d2	-0.09238781
173	0xbd965272	-0.07339944
174	0xbe4f49d4	-0.20243007
175	0x3d9881a1	0.074466
176	0xbe08751d	-0.13325925
177	0xbe229499	-0.15876998
178	0xbd43b73a	-0.04778216
179	0x3d9715ae	0.07377182
180	0xbe25fc4a	-0.16209522
181	0x3ccfe3bd	0.025377149
182	0x3e92723f	0.28602788
183	0xbe43f7dc	-0.1913752
184	0xbe6e5a5b	-0.23276655
185	0x3e5292d2	0.2056382
186	0xbd61bae7	-0.055109885
187	0xbd3ea1b3	-0.046540927
188	0x3e4dfdb8	0.20116317
189	0xbded6b93	-0.11592784
190	0x3ddd1ad9	0.107961364
191	0xbe43f341	-0.19135763
192	0x3e2d4010	0.16918969
193	0xbddb0ee6	-0.10696201
194	0xbe47fdbd	-0.19530387
195	0xbda4d7de	-0.08048986
196	0xbe65e256	-0.22449622
197	0x3e2c3b2a	0.16819444
198	0x3e5b2c01	0.21403505
199	0xbd7b8331	-0.06140441
200	0x3e0ca1e5	0.13733633
201	0x3e552060	0.20813131
202	0xbe469c2d	-0.19395514
203	0xbe13701a	-0.14398232
204	0xbe45efbd	-0.19329734
205	0xbe508d73	-0.20366459
206	0x3d8c2e62	0.06844784
207	0x3d9e64c4	0.07734063
208	0xbd96abdf	-0.073570006
209	0x3e2dcc9e	0.16972587
210	0xbe7fe0f8	-0.24988163
211	0xbe242054	-0.16027957
212	0x3e0d3bd0	0.13792348
213	0xb9fc68db	-0.0004814331
214	0xbc81386e	-0.015773978
215	0xbde699e3	-0.1125982
216	0xbda24d68	-0.0792492
217	0xbc626411	-0.013817803
218	0x3d917d87	0.071040206
219	0xbdc76bc2	-0.0973735
220	0xbd2fd376	-0.042926274
221	0xbe773c67	-0.24144135
222	0xbe45e7d3	-0.19326715
223	0xbe001539	-0.12508096
224	0x3e6af871	0.22946335
225	0xbdbac36e	-0.091193065
226	0x3d242c31	0.040081207
227	0xbbaba992	-0.00523872
228	0xbdcc46cd	-0.09974442
229	0x3d1d0774	0.038337186
230	0xbaccac4b	-0.0015615312
231	0x3dd2ce9d	0.102933146
232	0xbdbdf4fd	-0.092752434
233	0xbce84da7	-0.02835734
234	0xbd9b2bde	-0.075767264
235	0xbc22c628	-0.009934939
236	0xbe594f3d	-0.21221633
237	0xbde5dc1c	-0.11223623
238	0xbe2bc894	-0.16775733
239	0x3d88ce44	0.06679967
240	0x3e523c9c	0.20530933
241	0x3d9afaa1	0.07567335
242	0x3bf4bd77	0.007468875
243	0x3c012be1	0.007883997
244	0x3e0d316c	0.13788384
245	0xbd45f14c	-0.04832582
246	0x3dcbe22e	0.0995525
247	0x3d4e9b46	0.05044105
248	0xbd5590e8	-0.052140146
249	0x39203334	0.00015277864
250	0x3da7bddf	0.08190512
251	0xbcdbdc19	-0.02683835
252	0xbe01183a	-0.12606898
253	0xbd0cf4ad	-0.03441303
254	0xbe129403	-0.14314274
255	0xbd58306e	-0.05278056

weight f4 [256, 512]
0	0x3ca9a680	0.020709276
1	0xbceb5d31	-0.02873096
2	0x3d5b60aa	0.053558983
3	0x3cb95280	0.022622347
4	0xbcb71ff3	-0.022354102
5	0xbd891304	-0.0669308
6	0x3ad75ec4	0.0016431441
7	0x3d80c2a5	0.062871255
8	0xbd8074ac	-0.062722534
9	0xbc1020ac	-0.008796852
10	0xbcaaee8c	-0.020865701
11	0xbdd09216	-0.10184114
12	0xbca5eeb9	-0.020255433
13	0xbd8e0729	-0.069349594
14	0x3bdbe982	0.006711186
15	0x3ced0d8a	0.02893712
16	0xbd04accf	-0.032391366
17	0xbc78a00c	-0.015174877
18	0x3c982eac	0.018576942
19	0x3dafcdba	0.08584161
20	0x3b992ddb	0.004674656
21	0xbc199a19	-0.009375119
22	0x3d5cc5f7	0.05389973
23	0x3c935757	0.017985983
24	0xbd841ff4	-0.06451407
25	0xbdd79687	-0.10526758
26	0x3e03b05c	0.12860245
27	0x3d94f08d	0.07272444
28	0x3bcf3f86	0.0063247113
29	0x3dbc4977	0.091937
30	0xbd583882	-0.052788265
31	0xbcd17bc5	-0.025571713
32	0xbaf0d9da	-0.0018375472
33	0x3db43f62	0.08801152
34	0xbc8d05ae	-0.017214622
35	0x3cc7fd08	0.024412647
36	0xbcdb4a85	-0.026768932
37	0x3c5ff89f	0.013670116
38	0xbdb0a08a	-0.086243704
39	0xbd35ee11	-0.04441649
40	0xbd3d0c60	-0.04615438
41	0xbd1b5d71	-0.03793091
42	0x3bb0a015	0.005390177
43	0x3d13fb1c	0.03612815
44	0xbd0cfb21	-0.034419183
45	0xbd3e2bad	-0.04642837
46	0x3dec0eb9	0.115262456
47	0x3d56e004	0.05245973
48	0xbd692ed6	-0.05692943
49	0xbd6c447b	-0.057682496
50	0x3cd5ca85	0.026097545
51	0x3c805fbf	0.015670655
52	0x3d9a994f	0.075487725
53	0xbcbc1344	-0.022958405
54	0x3da080db	0.07837077
55	0xbde99b2d	-0.114065506
56	0x3df730e8	0.12069875
57	0xbbeb2fb5	-0.007177318
58	0xbd10d3c4	-0.035358205
59	0x3cb00e60	0.02149123
60	0xbd283c18	-0.041072935
61	0x3c93bac8	0.0180334
62	0x3cd08dcc	0.025458239
63	0xbc9a101f	-0.018806515
64	0x3dd34a9b	0.10316964
65	0xbd401070	-0.046890676
66	0xbd7858fb	-0.060631733
67	0xbc631573	-0.013860094
68	0xbd22a8e1	-0.039711837
69	0xbc5b6691	-0.013391153
70	0x3dbd87dd	0.092544295
71	0x3d43379a	0.047660448
72	0xbd352b34	-0.044230655
73	0xbd2d9607	-0.042379405
74	0xbdc89d6c	-0.09795651
75	0xbdc05e74	-0.093930155
76	0xbd6ac569	-0.05731717
77	0xbbb0f026	-0.0053997217
78	0xbcb6da0b	-0.022320768
79	0xbaf4de82	-0.0018682035
80	0x3d3feff6	0.046859704
81	0xbd1ca70e	-0.038245253
82	0xbe0f9b52	-0.14024094
83	0x3ca0604d	0.01957717
84	0xbd8d35f7	-0.068950586
85	0x3e207be5	0.15672262
86	0x3daf9c6d	0.08574758
87	0x3dafc21e	0.08581947
88	0x3c65fc58	0.014037214
89	0x3c24389f	0.010023265
90	0x3d54e21a	0.05197344
91	0xbd9248ea	-0.071428135
92	0x3ca86608	0.020556465
93	0xbdda7c7c	-0.10668275
94	0xbce4b3f5	-0.027917841
95	0xbadaacbf	-0.0016683562
96	0xbd2f022e	-0.042726688
97	0x3de2d492	0.11075701
98	0xbd1d9373	-0.038470697
99	0xbd31e8a3	-0.04343475
100	0x3d9b2c85	0.07576851
101	0xbc984c89	-0.018591182
102	0x3d9877b4	0.074447066
103	0x3cca93a2	0.0247286
104	0x3c8687c2	0.016422156
105	0x3d58b29f	0.05290472
106	0xbd554fb0	-0.05207795
107	0xbc12e2c4	-0.008965198
108	0x3aeb2e30	0.0017942842
109	0xbd0d3644	-0.03447558
110	0xbb133f87	-0.0022468285
111	0x3cc70512	0.02429441
112	0x3d05cca0	0.03266585
113	0x3d99e33b	0.07514044
114	0x3a86f965	0.0010297714
115	0x3d4b4614	0.04962738
116	0xbd4337b1	-0.047660533
117	0x3db3fde8	0.08788663
118	0xbd01820b	-0.03161816
119	0xbddcd023	-0.107818864
120	0x3d67bd0e	0.05657678
121	0xbe149fe3	-0.14514117
122	0xbd94be91	-0.0726291
123	0x3d1b3cbc	0.037899718
124	0xbcab8985	-0.020939598
125	0xbd48bbf7	-0.049007382
126	0x3d3a49e5	0.045480628
127	0x3d9ebfed	0.07751451
128	0xbde87536	-0.11350481
129	0x39d26711	0.00040131112
130	0x3daf2f77	0.08553975
131	0x3dc5a395	0.096503414
132	0x3d55dca3	0.05221237
133	0x3c3de3c1	0.011589945
134	0xbda62bda	-0.08113833
135	0x3db14b43	0.08656933
136	0xbd85e3c3	-0.06537583
137	0xbc6b0e17	-0.014346621
138	0xbd1d089e	-0.038338296
139	0x3b848cc1	0.0040450995
140	0x3c877572	0.016535494
141	0xbd3ce6ce	-0.04611855
142	0xbdaccb26	-0.08437185
143	0x3bfec1a1	0.007774547
144	0xbcde9eb9	-0.027175294
145	0x3d891834	0.066940695
146	0xbcb7e5b7	-0.022448404
147	0xbd8e754b	-0.069559656
148	0x3be9280b	0.007115369
149	0xbd402e69	-0.04691926
150	0x3c8e964e	0.017405655
151	0x3bd4bc38	0.006492164
152	0x3a0ecf4a	0.00054477586
153	0xbd238820	-0.03992474
154	0xbe3ff75d	-0.18746705
155	0x3dc04ded	0.09389863
156	0x3d67aad8	0.056559414
157	0x3db838e1	0.08995224
158	0x3c0772f2	0.008267151
159	0x3ba446d3	0.0050133257
160	0x3e021b54	0.12705737
161	0x3da28075	0.079346575
162	0xbd50a974	-0.050942853
163	0xbd955108	-0.07290846
164	0x3dd4dc1f	0.10393547
165	0xbd8ef4f4	-0.06980315
166	0x3d9e9fc2	0.07745315
167	0xbd0dd867	-0.034630205
168	0x3dacf5b9	0.084453054
169	0xbd7c5e1f	-0.0616132
170	0x3dad66a8	0.08466846
171	0xbdfa4aa6	-0.12221269
172	0xbd87a033	-0.066223525
173	0xbd982263	-0.07428434
174	0xbc51602a	-0.012779275
175	0x3d76503c	0.06013511
176	0x3dac585d	0.084152915
177	0xbc93c819	-0.01803975
178	0x3d175de4	0.036954775
179	0x3d566a7a	0.052347638
180	0x3ccb7a06	0.024838459
181	0xbe2fafe2	-0.17156938
182	0xbb088b2d	-0.0020834908
183	0xbda9e595	-0.082957424
184	0x3be95ec5	0.007121893
185	0xbcb82c89	-0.022482174
186	0xbd91a933	-0.0711235
187	0x3cad924b	0.021187922
188	0xbb51e9dd	-0.0032030263
189	0x3dabbfae	0.083861694
190	0x3d8ad999	0.06779785
191	0x3d9db148	0.07699829
192	0xbd78360b	-0.060598414
193	0x3cb1b4ab	0.021692595
194	0x3d39774a	0.04527978
195	0x3d17eee8	0.037093073
196	0x3c2a5446	0.010396069
197	0xbd11e0be	-0.03561472
198	0xbcc67387	-0.02422501
199	0xbc7c2a0d	-0.015390885
200	0x3c9c3f0b	0.01907303
201	0xbcb107f5	-0.02161024
202	0x3d7ce940	0.061745882
203	0xbdbc1220	-0.091831446
204	0x3df2e121	0.11859346
205	0x3d981373	0.07425585
206	0x3ca0e6da	0.019641329
207	0xbd2e574c	-0.04256372
208	0xbd64896c	-0.05579512
209	0x3cb2715e	0.021782573
210	0x3d5a2cb8	0.053265303
211	0x3df1e389	0.11810977
212	0xbd96b68b	-0.07359036
213	0xbdf38108	-0.11889845
214	0x3cae889d	0.021305377
215	0xbe06cff9	-0.13165273
216	0xbc7b0a4c	-0.015322279
217	0xbd6af0ad	-0.057358433
218	0x3d80ef96	0.062956974
219	0x3e3a80ef	0.18213247
220	0xbb31f4c4	-0.0027153948
221	0xbd90f785	-0.070784606
222	0x3ddc1bf5	0.1074752
223	0x3b95fcbc	0.0045772474
224	0xbc6d6a16	-0.014490625
225	0xbcaec7dd	-0.021335537
226	0xbc696d30	-0.014247224
227	0x3cc7b684	0.024379022
228	0x3db1a904	0.08674815
229	0x3c932e47	0.017966403
230	0xbd9045f4	-0.070445925
231	0xbdb65d08	-0.08904463
232	0xbdc6aa16	-0.0970041
233	0x3d3e6335	0.04648133
234	0x3dc129ac	0.094317764
235	0x3df4ebac	0.11959013
236	0x3d5c07d1	0.05371839
237	0x3de5c00d	0.112182714
238	0x3d8bf7f9	0.068344064
239	0x3d7b0dcc	0.061292455
240	0x3c373796	0.011182686
241	0x3c969e49	0.018386023
242	0xbde37ec8	-0.11108166
243	0x3d7dbe4c	0.06194906
244	0xbd705b83	-0.058681022
245	0xbde09643	-0.1096616
246	0xbc1e00e0	-0.009643763
247	0x3d1f5a99	0.03890476
248	0x3c8df405	0.017328272
249	0x3d73fb68	0.05956593
250	0xbdd4abf9	-0.10384364
251	0x3d2808aa	0.041023888
252	0xbda16d47	-0.07882171
253	0xbb15fba7	-0.0022885592
254	0x3c35520e	0.011066927
255	0xbbe8b7ca	-0.0071019875

bias f4 [256]
0	0xbd316412	-0.043308325
1	0xbdc49e59	-0.09600515
2	0xbd7dcb34	-0.061961368
3	0xbd0ba045	-0.03408839
4	0xbd420e7f	-0.047377106
5	0xbe092e61	-0.13396598
6	0xbd3d4eba	-0.046217658
7	0xbe06e538	-0.13173378
8	0xbe07cb21	-0.13261081
9	0xbe127ed7	-0.14306198
10	0xbbbdbfca	-0.0057906853
11	0xbde1f77e	-0.110335335
12	0xbdeab9ba	-0.11461206
13	0xbd62f44f	-0.055408772
14	0x3b241235	0.0025035266
15	0xbba9dbb5	-0.005183662
16	0x3d92c4ee	0.071664676
17	0xbd90f1dc	-0.07077381
18	0xbd18c59f	-0.03729784
19	0xbce2408d	-0.02761867
20	0x3b5214f9	0.0032055958
21	0xbdf9ecaa	-0.12203343
22	0xbd9dc43f	-0.077034466
23	0xbdf84b4e	-0.12123738
24	0xbdbd66fb	-0.092481576
25	0xbcb64429	-0.022249298
26	0xbe51ac48	-0.20475876
27	0xbe38390c	-0.17990512
28	0xbcb3a99a	-0.021931458
29	0xbdd7dde6	-0.10540371
30	0xbe15bbb0	-0.14622378
31	0xbd106dfa	-0.03526113
32	0xbdc5893e	-0.096453175
33	0xbdb3e1c2	-0.08783294
34	0xbdd87537	-0.10569232
35	0xbc190e4d	-0.0093417885
36	0xbc2ee609	-0.010674962
37	0xbdff1abb	-0.1245627
38	0x3cf4a622	0.029864375
39	0xbd40a6cc	-0.04703407
40	0xbd8251e9	-0.06363279
41	0xbdd66ffc	-0.10470578
42	0xbda373f4	-0.07981101
43	0xbe0614e2	-0.13093904
44	0xbd806057	-0.06268375
45	0xbd748dd3	-0.059705567
46	0xbdd6f57c	-0.10496041
47	0xbd00f70d	-0.031485606
48	0xbd1d1fee	-0.03836053
49	0xbdd1a5f1	-0.10236729
50	0xbd1b7892	-0.03795678
51	0xbd2dd5e0	-0.042440295
52	0x3c911d0e	0.01771405
53	0xbe20ad98	-0.15691221
54	0x3c6b4d5d	0.014361707
55	0xbd80893d	-0.06276176
56	0xbda94fdc	-0.08267185
57	0xbdb66295	-0.08905522
58	0xbd351c6b	-0.044216555
59	0xbd747914	-0.05968578
60	0xbd942e3e	-0.072353825
61	0xbdcf6e06	-0.10128407
62	0xbe311466	-0.17292938
63	0x3cad3ef1	0.021148177
64	0x3c853a05	0.016263017
65	0x3c6e3ea4	0.014541302
66	0x3d7eaf75	0.062179048
67	0xbd105c1a	-0.035244085
68	0xbcd82346	-0.026384007
69	0xbda5821f	-0.08081459
70	0xbe3063ca	-0.17225567
71	0xbd2a4352	-0.041568108
72	0xbce5511a	-0.027992774
73	0xbda8047a	-0.08203979
74	0xbd13a14a	-0.03604249
75	0x3d5b8349	0.053592
76	0xbd1465dc	-0.036229953
77	0xbdaa100c	-0.08303842
78	0xbdfe598f	-0.12419426
79	0xbe16356c	-0.14668816
80	0x3d5031ba	0.050828673
81	0xbe3926d2	-0.18081215
82	0xbe24be4f	-0.16088222
83	0xbe73ddff	-0.23815154
84	0xbdbc299e	-0.09187625
85	0x3c0f442f	0.008744284
86	0xbe0cbd37	-0.13744055
87	0x3d634f75	0.055495698
88	0xbe3c8665	-0.18410642
89	0xbda8df33	-0.08245697
90	0xbc3675cd	-0.011136484
91	0xbda6f27c	-0.08151719
92	0xbe0299f7	-0.12754045
93	0xbe042512	-0.12904766
94	0xbde0d48b	-0.10978039
95	0xbd03a766	-0.032142065
96	0xbdf816fd	-0.1211376
97	0xbde96e06	-0.113979384
98	0xbe0ac87a	-0.13553038
99	0xbd9630f4	-0.07333556
100	0xbe1816f2	-0.14852503
101	0x3ceb16de	0.028697427
102	0xbd2bbb56	-0.041926704
103	0xbe1104d3	-0.14161997
104	0xbe06efea	-0.13177457
105	0xbda8d624	-0.08243969
106	0xbdd54d57	-0.10415142
107	0x3a9bab6b	0.0011876648
108	0xbdea133f	-0.11429452
109	0xbd94d8ab	-0.07267889
110	0xbc969a33	-0.018384075
111	0xbd2e3d1d	-0.04253875
112	0x3dde6b4d	0.1086031
113	0xbbd321f0	-0.0064432546
114	0x3c9291a1	0.017891707
115	0xbccd4ee8	-0.02506204
116	0xbe0b97f1	-0.1363218
117	0xbd4bf9ad	-0.049798656
118	0xbd3354e9	-0.04378215
119	0xbdd0548a	-0.101723745
120	0xbdbec2c2	-0.09314491
121	0x3d0079b9	0.031366084
122	0xbe15487e	-0.14578435
123	0xbd3726c9	-0.044714723
124	0xbdfe8126	-0.12426977
125	0xbd383a24	-0.044977322
126	0xbc3269d0	-0.0108894855
127	0xbd7a0779	-0.061042283
128	0x3d0c9171	0.03431839
129	0xbdabd745	-0.08390669
130	0xbdb4cd77	-0.08828252
131	0x38cb0231	9.6802025e-05
132	0x3ced889c	0.028995804
133	0xbcff97a4	-0.031200238
134	0xbe0886e8	-0.13332713
135	0x3c8b015a	0.016968418
136	0xbd81b06a	-0.063324764
137	0xbe04a3d5	-0.12953122
138	0x3c1e361b	0.009656454
139	0xbcd12314	-0.025529422
140	0xbdd16bc8	-0.10225636
141	0xbe27ffca	-0.1640617
142	0xbe18461f	-0.14870499
143	0xbc3837fe	-0.011243818
144	0xbd5a5318	-0.0533019
145	0xbe212ed8	-0.15740526
146	0x3b8076f6	0.0039204312
147	0xbe7ada32	-0.24497297
148	0xbd68ccac	-0.056835815
149	0xbd95d7c6	-0.07316546
150	0xbd85167b	-0.064984284
151	0xbe37a11b	-0.1793255
152	0xbdfcf06f	-0.123505466
153	0xbd2d82ee	-0.042361192
154	0xbd804e8a	-0.0626498
155	0xbd8daef2	-0.06918134
156	0x3d68d1c0	0.05684066
157	0x3b9dd3c2	0.0048165033
158	0xbde65c0f	-0.112480275
159	0xbde8c272	-0.113652125
160	0xbd020f3f	-0.03175282
161	0xbd84cfd5	-0.06484953
162	0xbca59896	-0.02021436
163	0xbc959b17	-0.01826243
164	0xbd2c222c	-0.042024776
165	0xbdd0738e	-0.1017829
166	0x3c8d8bff	0.01727867
167	0xbdf77f1c	-0.12084791
168	0x3d2bb1e2	0.04191769
169	0xbe00d827	-0.12582456
170	0xbd995ce5	-0.07488421
171	0xbc3de674	-0.011590589
172	0xbe241c76	-0.16026482
173	0xbd0c61f0	-0.034273088
174	0xbdb9095b	-0.090349875
175	0xbdca0762	-0.098646894
176	0xbe36c895	-0.17849953
177	0x3ccee90e	0.025257614
178	0xbc0f28d1	-0.008737759
179	0xbd9bb66e	-0.07603155
180	0x3bf5a2f5	0.0074962326
181	0xbe38fe5a	-0.18065777
182	0xbe023e91	-0.1271918
183	0xbdcbcc51	-0.0995108
184	0x3d21c9fe	0.039499275
185	0xbdd66192	-0.10467829
186	0xbdc27473	-0.09494867
187	0xbdf4db67	-0.1195591
188	0xbdf7a97d	-0.12092874
189	0xbe0b224d	-0.13587303
190	0xbe19b3c2	-0.15009978
191	0xbe606d8e	-0.21916792
192	0x3c2e5c55	0.010642131
193	0xbd66d00d	-0.056350756
194	0x3d8bed2c	0.06832346
195	0xbe5b8d90	-0.2144072
196	0xbe3894e0	-0.18025541
197	0xbba7d213	-0.0051214783
198	0xbe59a80c	-0.21255511
199	0xbe14f822	-0.1454778
200	0xbde0c58f	-0.10975181
201	0xbe09e757	-0.13467155
202	0xbca1dd05	-0.01975871
203	0xbddd28a1	-0.10798765
204	0x3d547c5a	0.051876403
205	0xbda98630	-0.08277547
206	0x3b11f4f9	0.002227126
207	0xbd292a99	-0.04130039
208	0xbdfb8bee	-0.12282549
209	0xbd84caf9	-0.064840265
210	0xbdfc06c0	-0.12305975
211	0xbdd9beaa	-0.106320694
212	0xbda9ef5f	-0.082976095
213	0x3cd9251e	0.026506957
214	0x3d47bb2e	0.048762493
215	0xbdcb5272	-0.099278346
216	0xbdeb327d	-0.11484239
217	0xbdb5c991	-0.08876336
218	0xbdb921d8	-0.09039658
219	0xbd1554d4	-0.03645785
220	0xbdc37ce6	-0.09545307
221	0x3d6e73aa	0.058215775
222	0xbdc1bd12	-0.094598904
223	0xbd7904cc	-0.06079559
224	0xbdca8fd1	-0.09890712
225	0xbe3ef1dc	-0.1864695
226	0xbddd1190	-0.107943654
227	0xbdf91450	-0.121620774
228	0xbe00bf4c	-0.12572974
229	0xbe29f39a	-0.16596833
230	0xbe1f4b05	-0.15555961
231	0xbbc6d2f1	-0.0060676266
232	0xbd830003	-0.063964866
233	0xbe839b79	-0.25704554
234	0xbd92a50b	-0.07160386
235	0xbd6322f6	-0.055453263
236	0xbe01dc1c	-0.12681621
237	0xbe64c757	-0.22341667
238	0xbcc11bb6	-0.023572784
239	0xbd9dc031	-0.07702673
240	0xbd07cd4f	-0.033154782
241	0x3c86e775	0.01646779
242	0xbe1d9cd2	-0.15391853
243	0xbdc38cbe	-0.09548329
244	0xbcb02e73	-0.021506524
245	0xbd065da0	-0.03280413
246	0xbdfa03f3	-0.122077845
247	0xbdd2eb75	-0.10298816
248	0xbddfd5b5	-0.10929433
249	0xbe2998dc	-0.16562217
250	0xbde20d5d	-0.11037705
251	0xbdcf2c99	-0.10115928
252	0xbdc30c5e	-0.09523843
253	0xbd11cdd5	-0.035596687
254	0xbe1d11c6	-0.15338811
255	0x3d99ef09	0.075162955

weight f4 [128, 256]
0	0x3b9bc674	0.004753882
1	0x39cff94d	0.0003966786
2	0xbd1929fc	-0.037393555
3	0xbc20e37e	-0.009819863
4	0x3ce9912a	0.028511602
5	0x3bc02d79	0.0058647958
6	0x3c15955b	0.009129847
7	0xbd4c8332	-0.049929805
8	0x3dfe5f99	0.124205776
9	0xbd8f8f59	-0.07009763
10	0x3dceaeb8	0.10091919
11	0x3d9e32d3	0.07724538
12	0x3e49d927	0.19711743
13	0xbc54b3cb	-0.012982319
14	0x3d5fa104	0.054596916
15	0xbd59cd2d	-0.053174186
16	0xbd356cb3	-0.044293117
17	0x3aea1995	0.0017860407
18	0xbd4b10a1	-0.049576405
19	0xbca2df52	-0.019881878
20	0xbd10e062	-0.035370238
21	0xbdb0e723	-0.08637836
22	0x3d9c7056	0.07638614
23	0xbd407355	-0.04698499
24	0xbce07982	-0.02740169
25	0xbd9dd068	-0.07705766
26	0x3e00b428	0.12568724
27	0xbcd1c386	-0.025605928
28	0x3d1042e5	0.035220046
29	0xbd719a3f	-0.05898499
30	0xbdb21267	-0.08694916
31	0x3d8fb5dd	0.070171095
32	0x3dba6133	0.091005705
33	0xbbf183fc	-0.00737047
34	0x3de40f41	0.11135722
35	0xbdb74d15	-0.08950249
36	0xbdceef27	-0.101042084
37	0x3c651a22	0.013983281
38	0x3c1d9a73	0.009619343
39	0x3ddc1625	0.10746411
40	0xbd71eb7a	-0.05906246
41	0xbd03914c	-0.032120988
42	0xbd98a351	-0.07453025
43	0xbc96670e	-0.018359687
44	0x3cbda3ff	0.023149488
45	0x3d704556	0.058659874
46	0x3d185e24	0.037199154
47	0xbe27625e	-0.16346118
48	0xbd9e57fd	-0.07731626
49	0x3d29dd21	0.04147065
50	0x3d92930a	0.07156952
51	0xbd2c03bd	-0.041995753
52	0xbd6178fc	-0.05504702
53	0xbc8b9423	-0.01703841
54	0xbd3510ce	-0.04420548
55	0x3c8f32fc	0.017480366
56	0x3c287aa7	0.010283149
57	0xbdaf4b31	-0.085592635
58	0x3d93f106	0.07223706
59	0xbcebc164	-0.02877874
60	0x3d398cfd	0.045300473
61	0x3d957a95	0.07298771
62	0x3caa8d2b	0.020819267
63	0x3d8ee3db	0.06977054
64	0xbe1c654c	-0.15273017
65	0xbdbde630	-0.092724204
66	0xbdad2bfd	-0.08455656
67	0x3d5da8e8	0.05411616
68	0xbd6410b6	-0.05568
69	0xbe06c20b	-0.13159959
70	0xbd63d80b	-0.055625957
71	0x3d45708d	0.04820304
72	0xbd71780c	-0.058952376
73	0x3df3309e	0.11874507
74	0xbd94b95b	-0.07261916
75	0xbd6b6ee4	-0.0574788
76	0x3dce1e5d	0.10064385
77	0xbb185d94	-0.0023249136
78	0xbdfc14d5	-0.12308661
79	0xbc0ae911	-0.008478419
80	0xbda7cd6b	-0.08193477
81	0xbb61cbfd	-0.0034453862
82	0x3dc4cd48	0.09609467
83	0xbbd0270b	-0.0063523105
84	0xbbe82d27	-0.0070854607
85	0xbbb616fd	-0.0055569396
86	0x3d9d9bc5	0.07695726
87	0xbd36f828	-0.044670254
88	0xbd8d96bc	-0.06913516
89	0xbd26eef4	-0.040755227
90	0xbd28dfb6	-0.041228972
91	0xbd6d527e	-0.05794
92	0x3bed4963	0.0072414144
93	0xbcccbb02	-0.024991516
94	0xbe1f48a0	-0.15555048
95	0x3bfec0e4	0.007774459
96	0x3de005fd	0.10938642
97	0xbe2cbef0	-0.16869712
98	0x3d74ad57	0.059735622
99	0xbd82be51	-0.06383956
100	0x3d5803c6	0.052737974
101	0x3c8a74d4	0.016901411
102	0x3c33e38f	0.010979547
103	0x3db31756	0.08744685
104	0xbd196477	-0.037449326
105	0x3b3f426d	0.002918388
106	0xbce6b866	-0.0281641
107	0x3d32bb83	0.043635856
108	0x3d96bac7	0.07359844
109	0xbc369d44	-0.0111458935
110	0xbe63a746	-0.22231779
111	0xbd1ecc71	-0.03876919
112	0x3c5993b1	0.013279841
113	0xbca66fda	-0.020317007
114	0xbe84e40d	-0.2595524
115	0xbc65878d	-0.014009369
116	0xbdc104bf	-0.09424733
117	0x3d9aa576	0.075510904
118	0xb99c058a	-0.00029758766
119	0x3c38ef19	0.011287474
120	0x3db016ea	0.085981205
121	0xbd4d4df1	-0.05012316
122	0x3d652efb	0.055953007
123	0x3b61520f	0.0034381186
124	0x3c315bc0	0.010825098
125	0xbda49952	-0.08037056
126	0xbdca5396	-0.09879224
127	0x3cfd352b	0.030909142
128	0x3c186eac	0.00930373
129	0x3e11370f	0.1418116
130	0xbcca4d87	-0.024695171
131	0x3e013aae	0.12620041
132	0xbd7fc9ad	-0.062448192
133	0x3dc5f906	0.09666638
134	0x3e66ac43	0.2252665
135	0xbefcc512	-0.49369103
136	0x3da9674d	0.08271656
137	0xbd8f0927	-0.069841675
138	0x3dc20462	0.09473492
139	0xbd597b33	-0.053096008
140	0xbae61a4d	-0.0017555446
141	0x3e0d3c47	0.13792525
142	0xbd8678be	-0.065659985
143	0xbd869d9e	-0.06573032
144	0x3d93afc5	0.0721126
145	0x3dbcc730	0.092176795
146	0xbd817d8f	-0.063227765
147	0xbdf1677a	-0.11787315
148	0xbb347f94	-0.0027541863
149	0xbd809c7e	-0.062798485
150	0xbc88e7de	-0.016712125
151	0x3da2579a	0.07926865
152	0xbc470d77	-0.012149206
153	0x3d0c11b8	0.034196585
154	0xbda593b8	-0.08084816
155	0xbdf5b43e	-0.11997269
156	0x3df5a87c	0.119950265
157	0xbdacfb7f	-0.084464066
158	0xbe0079e5	-0.12546499
159	0xbd690260	-0.05688703
160	0x3d61154d	0.054951955
161	0x3d5865e6	0.052831553
162	0xbc15a10d	-0.009132636
163	0xbd1ea577	-0.03873202
164	0xbdd34ef3	-0.10317793
165	0x3c4f2691	0.012643472
166	0xbda4e1aa	-0.080508545
167	0xbca111fc	-0.019661896
168	0x3c9c8c72	0.019109938
169	0x3e118508	0.14210904
170	0xbc9ba8a2	-0.019001309
171	0xbd98f443	-0.07468464
172	0xbc74f11c	-0.014950063
173	0xbe062919	-0.13101615
174	0x3cfab282	0.030602697
175	0x3adfa184	0.0017061685
176	0x3d31fb0f	0.04345232
177	0x3d7ba75d	0.061438907
178	0x3c94730c	0.018121265
179	0xbc97a32d	-0.018510425
180	0xbe0c21dc	-0.13684791
181	0xbd02f739	-0.03197405
182	0xbd5101c9	-0.051027093
183	0x3d939935	0.07206956
184	0xbd246327	-0.04013362
185	0x3c9d108c	0.01917293
186	0x3c116c65	0.008875941
187	0xbd56c97e	-0.05243825
188	0x3d75600b	0.059906047
189	0x3d83bde9	0.06432707
190	0xbd116115	-0.035492975
191	0xbd17eab3	-0.03708906
192	0xbe51a539	-0.20473184
193	0x3cfd25dc	0.030901842
194	0xbbca56ce	-0.0061748987
195	0x3bd17650	0.006392278
196	0x3d5909e9	0.052987967
197	0x3d1155d4	0.035482243
198	0x3de111b1	0.109897025
199	0x3d511e9f	0.051054593
200	0x3da48043	0.080322765
201	0x3d82253d	0.06354759
202	0x3b3dcac2	0.0028959964
203	0x3b5a9c31	0.0033357257
204	0x3b116925	0.0022187915
205	0x3d0e5f6c	0.03475897
206	0x3dfb4041	0.12268115
207	0xbd2f00f5	-0.042725522
208	0xbcd287de	-0.025699552
209	0x3d8d44e9	0.06897909
210	0xbd20fbd9	-0.03930268
211	0xbd2d43e0	-0.04230106
212	0x3cd4278b	0.025897762
213	0x3cfc7c75	0.030821064
214	0xbd8fc7c7	-0.070205264
215	0x3b94a097	0.0045357454
216	0x3d7de3a1	0.061984662
217	0x3d0b5501	0.034016613
218	0xbd12e5fa	-0.035863854
219	0xb93f74ad	-0.00018258645
220	0xbc6cd3e7	-0.014454818
221	0xbd4f1949	-0.050561223
222	0xbdb11c6a	-0.08647998
223	0x3c15ff5d	0.009155122
224	0xbd8bad55	-0.0682017
225	0x3d243ebb	0.040098887
226	0xbdba4503	-0.09095194
227	0xbcc8f5a4	-0.024531193
228	0x3db77997	0.08958738
229	0x3d0fee77	0.035139527
230	0x3d9f5c1a	0.07781239
231	0xbd50cf84	-0.050979152
232	0x3cc946a7	0.024569822
233	0xbc3a5371	-0.011372433
234	0x3dc682d4	0.09692922
235	0x3e0fbc6c	0.14036721
236	0x3c88a2ec	0.01667925
237	0xbc381fd9	-0.011238062
238	0x3d88dba9	0.06682522
239	0xbda15821	-0.078781374
240	0x3d4b46cf	0.049628075
241	0xbcdbc5e3	-0.026827758
242	0xbd3a4814	-0.045478895
243	0xbd3d1904	-0.046166435
244	0x3dbe5b43	0.092947505
245	0x3dd6ef20	0.10494828
246	0xbd4f3212	-0.05058486
247	0x3d330cc4	0.043713346
248	0xbdcde1b0	-0.10052812
249	0x3d95de0d	0.073177435
250	0x3df05f08	0.11736876
251	0x3c643849	0.013929435
252	0xbb03e315	-0.0020124365
253	0xbded99fa	-0.11601634
254	0x3dd189a1	0.10231329
255	0xb9dd1915	-0.00042171092

bias f4 [128]
0	0xbddf4fc9	-0.1090389
1	0xbcd40a02	-0.025883678
2	0xbdb75bdf	-0.0895307
3	0xbd531f09	-0.05154327
4	0xbe0b0a8e	-0.13578245
5	0xbcbbf2d7	-0.022942943
6	0xbe3d272d	-0.18471976
7	0xbdb6ca46	-0.08925299
8	0xbda58b12	-0.08083166
9	0xbd055bfe	-0.032558434
10	0xbb1ad1bf	-0.0023623554
11	0xbd0eefd8	-0.0348967
12	0xbd097127	-0.033555176
13	0xbccfb75d	-0.02535599
14	0xbe119d66	-0.14220199
15	0xbdf99c40	-0.121880054
16	0xbd875057	-0.066071205
17	0xbd0c6530	-0.034276187
18	0xbd67d083	-0.056595337
19	0xb9d73dd4	-0.0004105406
20	0xbe183e60	-0.14867544
21	0xbb6aa02e	-0.003580104
22	0xbd83c056	-0.064331695
23	0xbda2eae9	-0.07954962
24	0xbc51a535	-0.012795736
25	0xbd983277	-0.074315004
26	0xbd6865d2	-0.05673773
27	0x3bdbbad1	0.00670562
28	0xbdbcf851	-0.0922705
29	0xbdb358c0	-0.08757162
30	0xbd223969	-0.03960553
31	0x3c30c618	0.010789417
32	0xbdba178f	-0.09086525
33	0xbdbbb1fe	-0.09164809
34	0xbddd8a83	-0.10817435
35	0xbbb93ed9	-0.005653244
36	0x3cdf667b	0.027270546
37	0x3c87f32a	0.016595442
38	0xbbbb71ca	-0.005720352
39	0xbe0657b8	-0.131194
40	0xbc213894	-0.009840149
41	0xbd6e1a28	-0.058130413
42	0xbd6908ad	-0.05689304
43	0xbe05fd13	-0.13084821
44	0xbd03b644	-0.032156244
45	0xbd9f2523	-0.07770755
46	0x3cb8ef39	0.022575008
47	0xbd950171	-0.072756656
48	0xbdc49416	-0.09598558
49	0xbd25f210	-0.040514052
50	0x3c869513	0.016428506
51	0xbdae53d6	-0.08512084
52	0xbbf9f8bb	-0.007628528
53	0xbd7cdd1c	-0.061734304
54	0xbe04d833	-0.12973098
55	0xbe01e588	-0.12685215
56	0xbcb99acf	-0.022656826
57	0xbc2081dc	-0.009796586
58	0xbd494b2a	-0.049143948
59	0xbd7ebd70	-0.06219238
60	0x3c80f2e5	0.015740821
61	0xbcd905d5	-0.026492039
62	0xbd3a9024	-0.04554762
63	0xbe09c132	-0.13452604
64	0xbbe7b500	-0.0070711374
65	0xbdf34254	-0.118778855
66	0x3c72462a	0.014787236
67	0xbddf4d90	-0.10903466
68	0xbc7ace9f	-0.015308051
69	0x3d9712b5	0.07376615
70	0xbd905c87	-0.07048898
71	0x3cbb929c	0.022897057
72	0xbd85b902	-0.06529428
73	0xbdc00899	-0.0937664
74	0xbbf07e84	-0.0073393006
75	0x3cb1b70e	0.021693733
76	0xbd8a3c06	-0.0674973
77	0x3cdd424b	0.02700915
78	0xbdea4009	-0.11437995
79	0xbd66c295	-0.05633791
80	0xbe364d12	-0.17802837
81	0xbb67b613	-0.0035356327
82	0xbccfac4d	-0.025350714
83	0x3cb936f9	0.02260922
84	0xbd4ededb	-0.0505055
85	0xbd9b8f01	-0.07595635
86	0xbd4cdbe4	-0.05001439
87	0xbd35d76b	-0.04439489
88	0xbde85b88	-0.11345583
89	0xbd97701b	-0.07394429
90	0x3c1a8944	0.009432141
91	0xbe138800	-0.14407349
92	0xbd02fabf	-0.03197741
93	0xbd055526	-0.032551907
94	0xbdaae187	-0.08343797
95	0xbdeb1fc6	-0.1148067
96	0x3cab2729	0.020892696
97	0x3d03d411	0.032184664
98	0x3d88690c	0.06660661
99	0xbd977f93	-0.0739738
100	0xbdc9c0fb	-0.09851261
101	0xbdae406e	-0.08508383
102	0x3be8fa50	0.0071099177
103	0xbd6f7861	-0.05846441
104	0xbe05bf9c	-0.13061374
105	0xbc5d82f3	-0.01351999
106	0xbe4f8c3f	-0.20268343
107	0xbdc04d06	-0.09389691
108	0xbda3ba38	-0.07994503
109	0xbe01178f	-0.12606643
110	0xbd2b4dda	-0.041822292
111	0xbd8ee7b4	-0.069777876
112	0xbb966c99	-0.0045905826
113	0xbe948da9	-0.29014328
114	0xbd3ad209	-0.04561046
115	0xbced3f48	-0.028960839
116	0xbd68dc08	-0.056850463
117	0xbb2ed7b0	-0.0026678853
118	0xbc2b23c6	-0.010445541
119	0xbe130ddc	-0.14360756
120	0xbc197070	-0.009365186
121	0xbd90e5e8	-0.07075101
122	0x3ae21180	0.0017247647
123	0xbdb62ba6	-0.08895044
124	0xbd345e7b	-0.044035416
125	0x3d0e7acb	0.034785073
126	0xbd9052e6	-0.070470616
127	0xbcf4caf1	-0.029881926

weight f4 [12, 128]
0	0x3c18d6c3	0.009328547
1	0xbd3f9d24	-0.04678072
2	0x3d17359b	0.036916357
3	0x3d5e8a41	0.054331068
4	0xbce41d9d	-0.027846152
5	0x3c271f31	0.010200308
6	0x3b2ee8c0	0.0026689023
7	0x3c3ef636	0.011655381
8	0x3d510d22	0.051037915
9	0x3c96be1b	0.018401196
10	0xbc1bc004	-0.009506229
11	0xbd1cf846	-0.03832271
12	0x3d35a3e0	0.044345737
13	0xbd541c70	-0.051784933
14	0x3d804641	0.062634
15	0xbce991c7	-0.028511895
16	0xbca66f5a	-0.020316768
17	0xbc16e4e2	-0.009209843
18	0xbdaecc05	-0.085350074
19	0x3b22d8b6	0.0024848408
20	0x3c9720d9	0.01844828
21	0x3c94d243	0.018166667
22	0xbc115d00	-0.008872271
23	0xbb919b28	-0.004443545
24	0xbc5de80d	-0.013544095
25	0xbcff536c	-0.031167708
26	0x3cad8cb2	0.021185253
27	0xbcaa6353	-0.020799315
28	0x3cb589a2	0.022160355
29	0xbb9ab0d0	-0.0047207847
30	0xbcba0bd1	-0.022710713
31	0x3bad4668	0.005287934
32	0xbd8a4249	-0.06750924
33	0x3ccfba03	0.025357252
34	0xbca97960	-0.020687759
35	0xbc2686dc	-0.010163989
36	0xbd9e634f	-0.07733785
37	0xbcc5a4de	-0.024126466
38	0xbd637b69	-0.055537615
39	0xbaef4bfd	-0.0018256899
40	0xbb81249d	-0.003941132
41	0x3ca259e3	0.019818252
42	0xbc7a108b	-0.015262733
43	0xbbd8f940	-0.00662151
44	0xbc2417a0	-0.010015398
45	0xbd3c1f93	-0.04592855
46	0x3ca13360	0.019677818
47	0x3c2ea2dc	0.010658946
48	0x3c247194	0.010036845
49	0x3d0ae771	0.033912126
50	0xbd797294	-0.060900286
51	0xbcb90666	-0.022586059
52	0xbce55bf9	-0.027997958
53	0x3bab443c	0.00522664
54	0x3a8c5061	0.0010705107
55	0x3de19974	0.11015597
56	0x3d30716d	0.04307692
57	0x3ccd5f68	0.025069907
58	0xbd63e399	-0.055636976
59	0x3befba9c	0.0073159467
60	0xbc127333	-0.008938598
61	0x3b83367d	0.0040042982
62	0x3d7b035a	0.061282493
63	0x3c849ab8	0.016187057
64	0xbcfee58c	-0.031115316
65	0x3c6330ff	0.013866662
66	0x3c191061	0.009342284
67	0x3d36a360	0.0445894
68	0xbacd0519	-0.0015641778
69	0x3c7530f5	0.014965286
70	0x3b918944	0.004441412
71	0xbb489dff	-0.003061175
72	0xbc53e0bb	-0.012931998
73	0x3c08aaee	0.008341534
74	0x3c095f97	0.008384607
75	0xbd136533	-0.035985183
76	0x3c1df09b	0.009639884
77	0xbd3bab95	-0.04581793
78	0xbd0d763f	-0.034536596
79	0xbd4ad39e	-0.04951822
80	0xbb31ec77	-0.0027149
81	0xbd49ea46	-0.049295686
82	0x3d81cb94	0.063376576
83	0xbcd5aad3	-0.026082432
84	0xbd23e21e	-0.040010564
85	0x3d12e407	0.035861995
86	0x3d1fa4ae	0.03897541
87	0x3d28124f	0.041033085
88	0xbbef1907	-0.0072966847
89	0x3c6b4441	0.014359535
90	0xbdedea6e	-0.116169795
91	0xbb8110c9	-0.0039387685
92	0xbd68ca36	-0.05683347
93	0x3c8c5de2	0.01713461
94	0x3db6c8d8	0.08925027
95	0x3cbfb498	0.023401543
96	0xbb2122fc	-0.0024587503
97	0xbcd9d46f	-0.026590554
98	0xbd86f6d1	-0.06590045
99	0xbc3bd1d3	-0.0114636
100	0xbc73a9b5	-0.014872004
101	0xbb9214c2	-0.004458041
102	0xbd080ac1	-0.03321338
103	0xbca6c649	-0.020358222
104	0x3d5de704	0.05417539
105	0xbc41d851	-0.011831359
106	0xbb67148e	-0.0035260054
107	0x3d13486c	0.03595774
108	0x3c9b8088	0.018982187
109	0x3c1108b9	0.008852177
110	0x3c603867	0.013685322
111	0xbc490746	-0.0122698005
112	0x3d25500f	0.040359553
113	0x3d811528	0.06302863
114	0x3d4ba3c0	0.04971671
115	0xbd8092ed	-0.06278024
116	0xbd907070	-0.07052696
117	0xbc2c0ff6	-0.010501852
118	0x3c7b7feb	0.015350322
119	0xbd21b60a	-0.039480247
120	0xbc9d580b	-0.019207021
121	0xbd211c5a	-0.03933368
122	0xbd086c30	-0.0333063
123	0x3d0f1abe	0.034937613
124	0x3d2f30af	0.042771038
125	0xbd0c4339	-0.034243796
126	0x3d209815	0.039207537
127	0xbba9ae45	-0.0051782453
128	0xbc8c4a2f	-0.017125217
129	0xbb329d21	-0.00272543
130	0xbae5f343	-0.0017543811
131	0xbcb31abd	-0.021863336
132	0xbd07fa53	-0.033197712
133	0xbc74d967	-0.014944411
134	0x3c1c8c3c	0.009554919
135	0x3c990277	0.018677933
136	0xbcd92b8a	-0.026510019
137	0x3d91d366	0.07120399
138	0x3aefb8e0	0.001828935
139	0x3d214729	0.039374504
140	0x3d00e482	0.031467922
141	0x3d9d0924	0.07667759
142	0xbc029405	-0.007969861
143	0xbd03730c	-0.03209214
144	0x3c601361	0.013676495
145	0xbd44199f	-0.047875997
146	0x3b92fac3	0.0044854595
147	0x3c55025c	0.013001051
148	0xbd874e8a	-0.06606777
149	0x3cd9b75a	0.026576687
150	0x3b473070	0.0030393861
151	0xbc86bd04	-0.016447552
152	0x3c736928	0.014856614
153	0x3d06ed17	0.03294095
154	0x3cfb1112	0.030647788
155	0x3c1e15e0	0.00964877
156	0xbc2b87b6	-0.010469368
157	0x3b364f83	0.0027818389
158	0x3b2032d4	0.0024444358
159	0xbd25a132	-0.04043693
160	0xbd44fae6	-0.048090838
161	0xbc6ab2d0	-0.014324859
162	0xbd1db76a	-0.038504995
163	0x3d3ac877	0.045601334
164	0xbc7f9e0f	-0.015601649
165	0x3d574c1f	0.05256283
166	0x3d690bd7	0.056896057
167	0x3d07f02b	0.033188026
168	0xbc56c1c6	-0.013107723
169	0xbba0dc9a	-0.0049091103
170	0x3c4353e2	0.011921855
171	0xbd882aaf	-0.06648766
172	0xbd898dca	-0.06716497
173	0x3bde7e3b	0.00678995
174	0x3d14b337	0.036303725
175	0xbc1e869e	-0.00967565
176	0x3d2849c8	0.04108599
177	0xbcf764a7	-0.030199362
178	0x3ce6c07d	0.028167957
179	0x3c8d1fc8	0.017227069
180	0xbd694ebb	-0.05695985
181	0xbd609d09	-0.05483726
182	0x3c392866	0.011301136
183	0x3ca6a104	0.02034045
184	0xbcc9dd4d	-0.024641657
185	0xbbd46925	-0.006482261
186	0x3a199414	0.0005858552
187	0xbdcfff87	-0.1015616
188	0xbd3c883d	-0.046028364
189	0x3ca911a4	0.020638295
190	0xbcdb1c17	-0.026746793
191	0x3d2c6ba4	0.04209484
192	0x3cc27ba6	0.0237406
193	0x3c3a59d6	0.011373958
194	0xbd02827c	-0.03186272
195	0x3d00cba3	0.031444203
196	0x3d2296be	0.03969454
197	0x3c37cd24	0.011218343
198	0xbcaeea72	-0.021352027
199	0x3db1ef33	0.08688202
200	0xbd2df91a	-0.04247389
201	0xbc7633ca	-0.015026996
202	0x3d5f01f5	0.054445226
203	0xbd2b354b	-0.04179887
204	0x3cb1fe52	0.021727715
205	0x3d3c1806	0.045921348
206	0x3daf4ae1	0.08559204
207	0xbc847905	-0.016170988
208	0xbd6c13b2	-0.05763597
209	0xbc47de2f	-0.012198969
210	0x3d0d7074	0.03453107
211	0x3d26a57b	0.04068516
212	0xbcdc8420	-0.02691847
213	0xbd52bddb	-0.05145059
214	0xbd796e71	-0.06089634
215	0x3a9ff17f	0.0012202709
216	0x3d2aa0e9	0.041657362
217	0xb8ed35fa	-0.000113110946
218	0x3c430558	0.0119031295
219	0xbd753df7	-0.059873547
220	0x3b6a1860	0.0035720095
221	0x3d111a75	0.035425622
222	0xbd52e386	-0.051486515
223	0x3d6bc634	0.057562068
224	0x3d7cd723	0.061728608
225	0x3cf2477e	0.029575106
226	0x3d1963c8	0.037448674
227	0xbcd00ec6	-0.02539767
228	0xbc8716ed	-0.016490424
229	0xbd0ee73c	-0.03488849
230	0xbc1f1ded	-0.009711725
231	0xbc0de715	-0.008661051
232	0xbbeb5bf7	-0.007182594
233	0x3c9758ec	0.018475018
234	0xbd4f3651	-0.05058891
235	0xbd67272e	-0.05643385
236	0x3d719233	0.058977317
237	0xbd736afc	-0.0594282
238	0xbce3f0d6	-0.0278248
239	0xbcf71043	-0.030159121
240	0x3cbc1107	0.022957338
241	0xbcb8ee64	-0.022574611
242	0xbca491c5	-0.02008904
243	0xbce4239f	-0.027849017
244	0x3d082a18	0.03324327
245	0xbb22ba95	-0.002483045
246	0xbc84fe14	-0.016234435
247	0xbd208eac	-0.039198563
248	0xbc0d1df3	-0.0086130975
249	0x3cf6dd9e	0.030134972
250	0x3c3ed66b	0.011647801
251	0xbceb7dc8	-0.0287465
252	0xbcabdfcd	-0.02098074
253	0xbc5bd827	-0.013418234
254	0x3bac8fec	0.0052661803
255	0xbc9dee2f	-0.019278614

bias f4 [12]
0	0xbbf362e6	-0.007427561
1	0x3d5363f5	0.051609
2	0xbdd2f110	-0.10299885
3	0x3d8f8191	0.07007135
4	0xbd42f40c	-0.047596022
5	0x3c925eb4	0.017867424
6	0xbb0c1c24	-0.0021379078
7	0x3ca1652b	0.019701561
8	0xbc8b85a7	-0.017031504
9	0x3d9f6760	0.07783389
10	0x3d67eafd	0.056620587
11	0x3d8bb31d	0.068212725
